…
ab":{"base_uri":"https://localhost:8080/"},"executionInfo":{"elapsed":4416,"status":"ok","timestamp":1655451878296,"user":{"displayName":"kassan abdallah","userId":"09488167868861802107"},"user_tz":-180},"id":"YO3OC07OQSv6","outputId":"91d9d9fb-e73e-451c-e237-67d7bb62a9c7"},"outputs":[{"name":"stdout","output_type":"stream","text":["Model: \"sequential\"\n","_________________________________________________________________\n"," Layer (type)                Output Shape              Param #   \n","=================================================================\n"," conv2d (Conv2D)             (None, 150, 150, 32)      896       \n","                                                                 \n"," max_pooling2d (MaxPooling2D  (None, 75, 75, 32)       0         \n"," )                                                               \n","                                                                 \n"," conv2d_1 (Conv2D)           (None, 75, 75, 64)        18496     \n","                                                                 \n"," max_pooling2d_1 (MaxPooling  (None, 37, 37, 64)       0         \n"," 2D)                                                             \n","                                                                 \n"," conv2d_2 (Conv2D)           (None, 37, 37, 128)       73856     \n","                                                                 \n"," max_pooling2d_2 (MaxPooling  (None, 18, 18, 128)      0         \n"," 2D)                                                             \n","                                                                 \n"," dropout (Dropout)           (None, 18, 18, 128)       0         \n","                                                                 \n"," flatten (Flatten)           (None, 41472)             0         \n","                                                                 \n"," dense (Dense)               (None, 128)               5308544   \n","                                                                 \n"," dropout_1 (Dropout)         (None, 128)               0         \n","                                                                 \n"," dense_1 (Dense)             (None, 1)                 129       \n","                                                                 \n","=================================================================\n","Total params: 5,401,921\n","Trainable params: 5,401,921\n","Non-trainable params: 0\n","_________________________________________________________________\n"]},{"name":"stderr","output_type":"stream","text":["/usr/local/lib/python3.7/dist-packages/k
…
